…
    "source": "raw_syllabi\\master_courses\\Data_science\\pdf_material\\An_introduction_to_statistical_learning.pdf",
    "date_published": "2023-08-14",
    "keywords": "Unavailable",
    "flag": "",
    "chunk_text": ". We specify the size of the input and see the size of each tensor as it passes through layers of the network. In [20]: summary(hit_model, input_size=X_train.shape, col_names=[ 'input_size' , 'output_size' , 'num_params' ]) Out[20]: ===================================================================== Layer (type:depth-idx) Input Shape Output Shape Param # ===================================================================== HittersModel [175, 19] [175] -- Flatten: 1-1 [175, 19] [175, 19] -- Sequential: 1-2 [175, 19] [175, 1] -- Linear: 2-1 [175, 19] [175, 50] 1,000 ReLU: 2-2 [175, 50] [175, 50] -- Dropout: 2-3 [175, 50] [175, 50] -- Linear: 2-4 [175, 50] [175, 1] 51 ===================================================================== Total params: 1,051 Trainable params: 1,051 We have truncated the end of the output slightly, here and in subsequent uses. We now need to transform our training data into a form accessible to torch . The basic datatype in torch is a tensor , which is very similar to an ndarray from early chapters. We also note here that torch t
…
existing batch X_ above. In [38]: mnist_model(X_).size() Out[38]: torch.Size([256, 10]) Let’s take a look at the summary of the model. Instead of an input_size we can pass a tensor of correct shape. In this case, we pass through the final batched X_ from above. In [39]: summary(mnist_model , input_data=X_, col_names=[ 'input_size' , 'output_size' , 'num_params' ]) Out[39]: ===================================================================== Layer (type:depth-idx) Input Shape Output Shape Param # ===================================================================== MNISTModel [256, 1, 28, 28] [256, 10] -- Sequential: 1-1 [256, 1, 28, 28] [256, 10] -- Sequential: 2-1 [256, 1, 28, 28] [256, 256] -- Flatten: 3-1 [256, 1, 28, 28] [256, 784] -- Linear: 3-2 [256, 784] [256, 256] 200,960 ReLU: 3-3 [256, 256] [256, 256] -- Dropout: 3-4 [256, 256] [256, 256] -- Sequential: 2-2 [256, 256] [256, 128] -- Linear: 3-5 [256, 256] [256, 128] 32,896 ReLU: 3-6 [256, 128] [256, 128] -- Dropout: 3-7 [256, 128] [256, 128] -- Linear: 2-3 [256, 128] [256, 10] 1,290 ===================================================================== Total params: 235,146 Trainable params: 235,146 Having set up both the model and the data module, fitting this model is now almost identical to the Hitters example. In contrast to our regression model, here we will use the SimpleModule.classification() method which SimpleModule. classifcation() uses the cross-entropy loss function instead of mean squared error. In [40]: mnist_module = SimpleModule.classification(mnist_model) mnist_logger = CSVLogger( 'logs' , name= 'MNIST' ) Now we are ready to go. The final step is to supply training data, and fit the model",
…
    "source": "raw_syllabi\\master_courses\\Data_science\\pdf_material\\An_introduction_to_statistical_learning.pdf",
    "date_published": "2023-08-14",
    "keywords": "Unavailable",
    "flag": "",
    "chunk_text": ". (We had created examples of X_ earlier.) In [55]: cifar_model = CIFARModel() summary(cifar_model , input_data=X_, col_names=[ 'input_size' , 'output_size' , 'num_params' ]) Out[55]: ====================================================================== Layer (type:depth-idx) Input Shape Output Shape Param # ====================================================================== CIFARModel [128, 3, 32, 32] [128, 100] -- Sequential: 1-1 [128, 3, 32, 32] [128, 256, 2, 2] -- BuildingBlock: 2-1 [128, 3, 32, 32] [128, 32, 16, 16] -- Conv2d: 3-1 [128, 3, 32, 32] [128, 32, 32, 32] 896 ReLU: 3-2 [128, 32, 32, 32] [128, 32, 32, 32] -- MaxPool2d: 3-3 [128, 32, 32, 32] [128, 32, 16, 16] -- BuildingBlock: 2-2 [128, 32, 16, 16] [128, 64, 8, 8] -- Conv2d: 3-4 [128, 32, 16, 16] [128, 64, 16, 16] 18,496 ReLU: 3-5 [128, 64, 16, 16] [128, 64, 16, 16] -- MaxPool2d: 3-6 [128, 64, 16, 16] [128, 64, 8, 8] -- BuildingBlock: 2-3 [128, 64, 8, 8] [128, 128, 4, 4] -- Conv2d: 3-7 [128, 64, 8, 8] [128, 128, 8, 8] 73,856 ReLU: 3-8 [128, 128, 8, 8] [128, 128, 8, 8] -- MaxPool2d: 3-9 [128, 128, 8, 8] [128, 128, 4, 4] -- BuildingBlock: 2-4 [128, 128, 4, 4] [128, 256, 2, 2] -- Conv2d: 3-10 [128, 128, 4, 4] [128, 256, 4, 4] 295,168 ReLU: 3-11 [128, 256, 4, 4] [128, 256, 4, 4] -- MaxPool2d: 3-12 [128, 256, 4, 4] [128, 256, 2, 2] -- Sequential: 1-2 [128, 1024] [128, 100] -- Dropout: 2-5 [128, 1024] [128, 1024] -- Linear: 2-6 [128, 1024] [128, 512] 524,800 ReLU: 2-7 [128, 512] [128, 512] -- Linear: 2-8 [128, 512] [128, 100] 51,300 ====================================================================== Total params: 964,516 Trainable params: 964,516 The total number of trainable parameters is 964,516. By studying the size of the parameters, we can see that the channels halve in both dimensions after each of these max-pooling operations. After the last of these we have a layer with 256 channels of dimension 2 × 2",
    "chunk_id": "an_introduction_to_statistical_learning_page-399-467.json_chunk_62"
…
